trained_model.pth (torch, 122564 bytes, 6 tensors)

layer1.weight f4 [128, 94]
0	0xbe83bea3	-0.25731382
1	0x3db1a055	0.08673159
2	0xbd3153fa	-0.043292977
3	0xbdb212cb	-0.08694991
4	0x3dae65cd	0.08515511
5	0x3ef81507	0.48453543
6	0xbd925482	-0.07145025
7	0x3f273b9e	0.65325344
8	0x3f3afe2f	0.73044103
9	0x3f45be94	0.77243924
10	0x3cea66a0	0.028613389
11	0x3c7d8b0a	0.015475044
12	0x3ecb651a	0.39725572
13	0x3e6544af	0.22389482
14	0x3df9a233	0.1218914
15	0x3e45f8e7	0.1933323
16	0x3e1ac54f	0.1511433
17	0xbd9eb1c5	-0.077487506
18	0xbde3f725	-0.111311235
19	0x3df64718	0.12025279
20	0x3eb17072	0.346561
21	0x3e02e9a2	0.12784436
22	0xbdb2172d	-0.08695827
23	0xbf17eb73	-0.5934364
24	0xbda38f34	-0.07986298
25	0xbf09a379	-0.53765064
26	0xbf6491cf	-0.89284986
27	0x3cb117a4	0.021617718
28	0x3dd6412b	0.104616486
29	0x3ed1d400	0.40982056
30	0xbef50552	-0.47855622
31	0xbe834a4f	-0.2564263
32	0xbf2b465f	-0.6690425
33	0xbe18fd43	-0.14940362
34	0x3e80ae10	0.251328
35	0xbb377fba	-0.0027999715
36	0xbe222b9c	-0.15836948
37	0xbd025379	-0.031817887
38	0x3dddcee2	0.108304754
39	0x3e28a7ff	0.16470335
40	0x3e632c3b	0.22184841
41	0x3e487253	0.19574861
42	0x3cc03d20	0.023466647
43	0x3e722004	0.23645025
44	0x3e1a46f5	0.1506613
45	0x3f014985	0.50502807
46	0x3f01195e	0.5042933
47	0xbe4b91f1	-0.19879891
48	0x3e869a30	0.2628951
49	0x3cb63c06	0.022245418
50	0x3ed34789	0.41265514
51	0x3ef64b4a	0.48104316
52	0xbe36cd6f	-0.17851804
53	0x3dc6f0a6	0.09713869
54	0x3d064926	0.032784604
55	0xbda64824	-0.081192285
56	0x3e127f57	0.14306389
57	0x3f7bcc27	0.98358387
58	0xbe825140	-0.25452614
59	0x3e40f01b	0.18841593
60	0x3deab62f	0.1146053
61	0x3e24f913	0.1611064
62	0x3f6e2b06	0.930344
63	0x3ec9526a	0.3932069
64	0x3dbad25e	0.091221556
65	0x3ea27b12	0.3173452
66	0x3fb47bd2	1.4100287
67	0x3f36c709	0.71397454
68	0xc00d707f	-2.2099912
69	0xbf8c863f	-1.0978469
70	0xbf6fc2bb	-0.9365651
71	0xbff7638b	-1.9327253
72	0x3ef19311	0.47182515
73	0x3e780e87	0.24224292
74	0x3defa6fa	0.1170177
75	0x3d638dc8	0.055555135
76	0x3eacc316	0.3374259
77	0x3e8d0be1	0.27548125
78	0xbe7b3158	-0.24530542
79	0x3f15ada8	0.58468103
80	0x3dd7bc7c	0.105339974
81	0x3d33225f	0.04373395
82	0xbe01ff84	-0.12695128
83	0xbebe53b7	-0.37173244
84	0x3d408b51	0.047007862
85	0xbd31d273	-0.04341359
86	0x3ee331f9	0.44374064
87	0xbdf37436	-0.118874
88	0xbe467a5c	-0.19382614
89	0xbeeb7bae	-0.45992798
90	0xbccf0388	-0.025270239
91	0xbd80b359	-0.06284208
92	0x3f9a4a9f	1.2054023
93	0xbe9766f9	-0.2957075
94	0x3d982c81	0.074303634
95	0x3dd3fe57	0.10351246
96	0xbf61a4ea	-0.88142264
97	0xbf92dd12	-1.1473715
98	0xbf62c4f3	-0.8858177
99	0xbf8cb82c	-1.0993705
100	0xbfb05712	-1.3776572
101	0x3df41ac5	0.119191684
102	0x3f57e079	0.84326893
103	0x3e99ea6a	0.30061656
104	0xbf360afe	-0.7111052
105	0xbf1cb04e	-0.6120652
106	0x3e427191	0.18988635
107	0x3d5aa41d	0.053379167
108	0xbf417118	-0.7556319
109	0xbd8894a7	-0.06668978
110	0xbe2d5854	-0.16928226
111	0xbfb47b51	-1.4100133
112	0xbd8818a5	-0.066453256
113	0xbdebccc7	-0.115136676
114	0x3f432609	0.7622991
115	0xbfacb8f4	-1.3493943
116	0xbf20d0be	-0.62818515
117	0xbf2bdfea	-0.6713854
118	0xbcb3eb7c	-0.021962874
119	0x3dfd5b75	0.1237096
120	0x3e9f26c1	0.31084254
121	0xbd96f83f	-0.07371568
122	0x3e045364	0.12922436
123	0xbf972884	-1.1809239
124	0x3e26fc95	0.1630729
125	0x3eb18b78	0.3467672
126	0xbf66ffb4	-0.9023392
127	0xbfc988f6	-1.5744922
128	0xbf5f2f57	-0.8718161
129	0xbfa8df3d	-1.3193127
130	0xbfaf388f	-1.3689135
131	0xbc9822f1	-0.018571349
132	0xbe8d268f	-0.2756848
133	0xbfa029cf	-1.2512759
134	0xbde82970	-0.113360286
135	0xbd249914	-0.04018505
136	0xbfecf621	-1.8512613
137	0xbe7f025e	-0.24903247
138	0xbf34fb64	-0.7069609
139	0xbf3771d7	-0.7165808
140	0xbdb0e0e4	-0.086366445
141	0xbda94dd8	-0.08266801
142	0xbe856a67	-0.2605774
143	0xbf6aac81	-0.9166947
144	0xbeee53be	-0.46548265
145	0xbd057e12	-0.032590933
146	0xc01d6b6f	-2.4596822
147	0xbed4d802	-0.4157105
148	0xbf5e737f	-0.86894983
149	0xbfb2b4bc	-1.3961406
150	0xbe45e632	-0.19326094
151	0x3f810cd6	1.0082042
152	0xbf037ab3	-0.513591
153	0xbe9d0480	-0.30667496
154	0xbf7041bc	-0.938503
155	0xbf6df837	-0.9295687
156	0xbf9938dd	-1.1970478
157	0xbdcb3cc7	-0.09923702
158	0xbfbcac4e	-1.4740083
159	0xbcddde6c	-0.027083598
160	0xbf6612df	-0.89872545
161	0x3b84da20	0.004054323
162	0xbffb7118	-1.9643888
163	0xbfe0d656	-1.756541
164	0xbfa62f3b	-1.2983164
165	0xbfe542bf	-1.7910994
166	0xbee2a284	-0.44264615
167	0xbd075a2c	-0.03304498
168	0xbe06f874	-0.13180715
169	0xbf163af7	-0.58683723
170	0x3c9c96af	0.01911482
171	0x3ea5077e	0.3223228
172	0xbc53d0de	-0.012928216
173	0xbd94aa7f	-0.07259082
174	0xbf203962	-0.6258756
175	0xbe0b240d	-0.13587971
176	0x3d994216	0.07483308
177	0x3cdbd520	0.026835024
178	0xbdcf8f20	-0.10134721
179	0xbcc3aa05	-0.023884783
180	0xbeb20a81	-0.3477364
181	0x3e8a0eff	0.26964566
182	0x3e2bc9ea	0.16776243
183	0x3e904bf0	0.28182936
184	0x3d8b5734	0.06803742
185	0xbd192d4c	-0.037396714
186	0x3ebdb238	0.37050033
187	0xbf0730b5	-0.52808696
188	0xbeafdd49	-0.34348515
189	0x3efb379a	0.49065858
190	0xbdf972b6	-0.121800825
191	0x3e364494	0.17799598
192	0x3ebf3f7b	0.3735312
193	0x3f057f97	0.5214781
194	0x3dbc76ac	0.09202322
195	0x3f70425a	0.93851244
196	0x3fbd04ff	1.476715
197	0x3fa78cd6	1.3089855
198	0xbe8737cd	-0.2640976
199	0x3eda3886	0.4262125
200	0x3ee4fe4a	0.44725257
201	0x3ec898e5	0.3917915
202	0x3eb8ba56	0.36079663
203	0x3d926563	0.07148244
204	0x3e11b56e	0.14229366
205	0xbc3ff978	-0.011717193
206	0xbe9f2ebf	-0.31090352
207	0x3f41a056	0.7563528
208	0x3f82e272	1.0225356
209	0xbe1ab4f1	-0.15108086
210	0x3eb05c62	0.34445482
211	0xbe0982ee	-0.13428852
212	0xbdc62a6e	-0.096760616
213	0xbf457a60	-0.77139854
214	0xbf7eca17	-0.99527115
215	0x3eaa4a90	0.33260012
216	0x3e0f7115	0.14007981
217	0x3f318a0a	0.69351256
218	0x3e9742c0	0.29543114
219	0x3e6f8ec0	0.23394299
220	0xbc26adae	-0.010173244
221	0x3b01870a	0.0019764327
222	0x3f04ce8f	0.51877683
223	0xbdbc8a6c	-0.092060894
224	0xbd604007	-0.05474856
225	0x3e7d8b7b	0.24760239
226	0x3e56a880	0.20962715
227	0x3edde28f	0.43336913
228	0x3d68b8d1	0.05681688
229	0x3ccdd3b5	0.025125364
230	0xbf3ddde5	-0.7416671
231	0x3e8975f5	0.26847807
232	0xbd77247c	-0.06033753
233	0xbe889874	-0.26678813
234	0xbd22d3a8	-0.039752632
235	0xbed74d0a	-0.42050964
236	0x3ec0499f	0.37556168
237	0x3dcb0e2a	0.09914811
238	0x3e47326c	0.19452828
239	0x3ef3c6ba	0.47612554
240	0xbfafc6d1	-1.3732549
241	0x3e54dbdf	0.20786999
242	0xbcd250d7	-0.025673313
243	0xbf5c7ae1	-0.86125
244	0x3d93ef35	0.072233595
245	0x3f374e9c	0.71604323
246	0x3e32e7c1	0.1747122
247	0x3e31bdad	0.17357512
248	0x3e42aa53	0.19010286
249	0x3e6b936d	0.23005457
250	0x3fc05257	1.5025128
251	0x3f1ac47c	0.6045606
252	0x3f87a277	1.0596455
253	0x3f25a943	0.647114
254	0x3facb51d	1.3492771
255	0x3e7555bb	0.23958485

layer1.bias f4 [128]
0	0xbe9201d8	-0.28517032
1	0x3bba919c	0.0056936275
2	0xbe722311	-0.2364619
3	0xbdc258be	-0.094895825
4	0x3d04cdb0	0.03242272
5	0xbe225ca5	-0.15855654
6	0xbe3b46b8	-0.18288696
7	0xbe14723d	-0.14496703
8	0xbdca48f6	-0.098771974
9	0xbd8b56df	-0.06803679
10	0xbdb2c8d1	-0.08729709
11	0xbd3cf0b8	-0.046128005
12	0x3e082a0a	0.13297287
13	0x3e0b2375	0.13587745
14	0xbc8782c2	-0.016541842
15	0x3d11af7c	0.035567746
16	0xbe235cc5	-0.15953358
17	0x3d927ae0	0.07152343
18	0xbdadce3b	-0.08486601
19	0x3d103ce9	0.03521434
20	0xbb8d4823	-0.004311578
21	0xbded8c65	-0.11599044
22	0xbe181d4e	-0.14854929
23	0x3d8237dd	0.06358311
24	0x3d92fd58	0.07177228
25	0xbd46cec5	-0.048537035
26	0x3e1dc8ee	0.1540868
27	0x3cdc41cf	0.026886849
28	0x3c56fc29	0.013121643
29	0xbe217fcf	-0.15771411
30	0xbd50abc0	-0.050945044
31	0xbe47a0df	-0.19494961
32	0x3ea2ff18	0.31835246
33	0x3e116697	0.14199291
34	0xbe1c44c2	-0.15260604
35	0xbe0ed877	-0.13949762
36	0xbd103bfc	-0.035213456
37	0xbcdcce1d	-0.026953751
38	0xbcc1b830	-0.023647398
39	0xbe7ab393	-0.24482565
40	0x3c84282e	0.01613244
41	0xbe5e359a	-0.21700135
42	0xbd22b60c	-0.039724395
43	0x3d745f43	0.05966116
44	0x3d6af660	0.057363868
45	0xbbb1982e	-0.0054197526
46	0xbcd1da27	-0.025616718
47	0x3e1ea532	0.15492705
48	0xbd00a1e0	-0.031404376
49	0x3d84d9c7	0.0648685
50	0xbe4b59c4	-0.19858462
51	0xbda2792e	-0.079332694
52	0xbd7e7a65	-0.062128443
53	0x3c5cb15e	0.013470022
54	0x3c4dd07a	0.012561912
55	0xbd520b02	-0.05128003
56	0xbe43c07d	-0.19116397
57	0x3e212d60	0.15739965
58	0xbe529aa0	-0.20566797
59	0xbdf205b2	-0.118174925
60	0x3c435b56	0.011923632
61	0xbe878957	-0.2647197
62	0x3da0703d	0.07833908
63	0x3dd39731	0.10331572
64	0x3d5bd816	0.053672872
65	0xbdba1bc4	-0.09087327
66	0x3dbcaa9b	0.09212228
67	0x3dae8b66	0.08522682
68	0x3deb5b0b	0.114919744
69	0xbe770106	-0.24121484
70	0x3cf84ba3	0.030309504
71	0xbd9da4cd	-0.07697449
72	0xbd526d49	-0.051373754
73	0x3dc65bef	0.09685504
74	0x3dd601bb	0.10449549
75	0xbca358eb	-0.01993986
76	0xbe3a0b45	-0.18168361
77	0x3dfc6b22	0.123251215
78	0xbe949ec6	-0.29027385
79	0x3d1ce065	0.038299937
80	0x3d53b99a	0.051690675
81	0xbab56e55	-0.0013842086
82	0x3dfcaca3	0.12337615
83	0xbd4c4898	-0.04987392
84	0x3d42703b	0.047470313
85	0xbe10080e	-0.14065573
86	0xbe04ff7d	-0.12988086
87	0x3ca0f28f	0.019646911
88	0x3cb75621	0.022379937
89	0x3e45c2d0	0.19312596
90	0x3decbec8	0.11559826
91	0xbe07e184	-0.13269621
92	0x3de93922	0.1138785
93	0x3d8107a1	0.06300283
94	0xbe3ac871	-0.18240525
95	0xbe045b5f	-0.1292548
96	0x3cd5ddea	0.026106793
97	0xbdd0581b	-0.10173055
98	0xbe434a6b	-0.19071357
99	0x3d8d1054	0.0688788
100	0xbdae1271	-0.08499611
101	0x3da856f3	0.08219709
102	0xbbf86c3e	-0.007581263
103	0x39f84150	0.00047350908
104	0xbca3c34c	-0.019990586
105	0xbd926eb6	-0.07150023
106	0x3d3cac6c	0.04606287
107	0xbdb11f1b	-0.08648511
108	0x3d40c15a	0.047059394
109	0x3d9bb4dd	0.07602856
110	0xbdcb5c0c	-0.09929666
111	0x3d09bba0	0.0336262
112	0xbd0e9241	-0.034807447
113	0xbd369e92	-0.04458482
114	0xbc5efe8a	-0.0136104915
115	0xbb6a1f90	-0.003572438
116	0xbdba3b9d	-0.090934016
117	0xbd17cbee	-0.037059717
118	0x3b226bca	0.0024783486
119	0xbcecb541	-0.028895022
120	0x3be795b7	0.007067408
121	0x3db8c5d1	0.090221055
122	0x3d822390	0.06354439
123	0xbcbc4ecc	-0.022986792
124	0x3e9de381	0.30837634
125	0xbe400b9f	-0.18754433
126	0xbd14a8cf	-0.0362938
127	0xbdd3162d	-0.10306964

layer2.weight f4 [128, 128]
0	0xbd31ac55	-0.04337724
1	0x3b5ba4ff	0.0033515093
2	0x3c7e1c56	0.0155096855
3	0x3d64f015	0.055893023
4	0xbd83090a	-0.063982084
5	0xbbc149bf	-0.005898684
6	0xbdc2e7cf	-0.0951687
7	0xbd98acb6	-0.07454817
8	0xbd9071b1	-0.07052935
9	0xbdcc1aca	-0.09966047
10	0xbd19274a	-0.037390985
11	0xbda4df93	-0.08050456
12	0xbd1b67ce	-0.037940793
13	0x3c5d8d3f	0.013522445
14	0xbd2c7849	-0.0421069
15	0xbc1a8c04	-0.009432796
16	0xbd68eaf5	-0.056864697
17	0xbd8c1810	-0.06840527
18	0x3b9267c8	0.004467938
19	0xbd25d200	-0.040483475
20	0x3d906b90	0.07051766
21	0x3d8f7254	0.07004228
22	0xbd462457	-0.0483745
23	0x3d917f15	0.07104317
24	0x3d317403	0.043323528
25	0xbc814f51	-0.015784891
26	0xbca046cd	-0.01956501
27	0xbca946ae	-0.020663586
28	0x3d55584a	0.052086152
29	0xbda774f1	-0.08176602
30	0x3c343cfd	0.011000869
31	0xbdbaadb8	-0.091151655
32	0xbdc88ed7	-0.097928695
33	0xbdad0889	-0.084488936
34	0xbbe5699d	-0.0070011155
35	0xbdadca89	-0.08485896
36	0x3c5986e3	0.013276788
37	0xbcaa6e5b	-0.020804575
38	0xbd573465	-0.0525402
39	0x3a9a5271	0.0011773837
40	0xbd03504a	-0.03205899
41	0xbd3824a4	-0.04495682
42	0xbde01187	-0.10940843
43	0x3cabf8ab	0.020992598
44	0x3d16ee03	0.03684808
45	0x3d0b71dd	0.034044135
46	0x3d64ecee	0.055890016
47	0x3c43b128	0.011944093
48	0x3c4d8e84	0.012546185
49	0xbd956cd6	-0.072961494
50	0xbd1e73c1	-0.03868461
51	0x3d4bfc59	0.049801204
52	0xbdf8372a	-0.12119897
53	0xbcfe6812	-0.031055484
54	0xbd91c978	-0.07118505
55	0xbd6a3689	-0.057180915
56	0x3d6d74da	0.057972766
57	0xbd5074db	-0.050892692
58	0xbdb1bdeb	-0.08678802
59	0xbd87914f	-0.06619512
60	0xbb809882	-0.0039244303
61	0xbdc9d2e5	-0.09854678
62	0x3d2f9a44	0.04287173
63	0x3bdf8fa3	0.0068225428
64	0x3ba49c67	0.0050235274
65	0xbdbc50e2	-0.09195115
66	0xbdc6d239	-0.097080655
67	0xbcb5d1d1	-0.022194775
68	0x3c089d35	0.008338262
69	0x3c98703c	0.018608205
70	0xbd24b67b	-0.04021309
71	0xbd3a3438	-0.045459956
72	0x3d3461a7	0.04403844
73	0x3c9ff570	0.019526213
74	0xbdccb249	-0.09994943
75	0xbda93102	-0.082613006
76	0xbd776b7e	-0.060405247
77	0xbd1aeafb	-0.03782175
78	0xbda713f8	-0.081581056
79	0xbdd4184b	-0.10356196
80	0x3d060a26	0.032724522
81	0xbe1107c2	-0.14163116
82	0xbc4e9b7e	-0.012610314
83	0xbdba40d3	-0.090943955
84	0x3c82f9d2	0.015988264
85	0xbcf0fd1c	-0.029417567
86	0xbdc80acd	-0.09767685
87	0x3c7b642a	0.015343705
88	0xbd4a19de	-0.049341075
89	0x3c9897cc	0.01862707
90	0xbda3fbbe	-0.080070004
91	0x3d6448af	0.05573338
92	0x3d749b1b	0.059718233
93	0x3c0574cb	0.008145521
94	0x395044b8	0.00019862026
95	0x3bf5932a	0.00749435
96	0x3cf1da5c	0.029523067
97	0x3b81e220	0.003963724
98	0xbd2fcb1e	-0.042918317
99	0xbdecaa54	-0.11555925
100	0x3c9640a1	0.018341364
101	0xbdb4acc0	-0.08822012
102	0xbda929d6	-0.08259933
103	0xbd95afb7	-0.073089056
104	0xbd3aa63f	-0.0455687
105	0xbd8ca449	-0.068672724
106	0x3d017a71	0.03161091
107	0x3b858c6b	0.004075577
108	0xbde05ab5	-0.10954801
109	0xbde3e7a6	-0.11128168
110	0xbddc4f04	-0.107572585
111	0xbd5d43e9	-0.054019842
112	0xbd5cae77	-0.05387732
113	0xbcd9c081	-0.02658105
114	0xbd6e83b6	-0.058231078
115	0xbdd53301	-0.10410119
116	0xbdc96989	-0.09834582
117	0x3c82826b	0.015931329
118	0x3b0374ef	0.0020058712
119	0xbd6cc1b6	-0.057801925
120	0x3bb8ef7b	0.0056437827
121	0x3d187315	0.037219126
122	0xbbe6a484	-0.0070386548
123	0x3d833283	0.06406119
124	0xbc1ab51f	-0.009442597
125	0xbbdcc810	-0.0067377165
126	0xbd7a48a7	-0.061104443
127	0x3d32cc86	0.04365208
128	0xbd9b1f90	-0.075743794
129	0xbea5dd11	-0.32395223
130	0xbe0bb0c0	-0.13641644
131	0x3e48c3c6	0.19605932
132	0x3ee5199c	0.447461
133	0xbe8b9b3d	-0.27266875
134	0x3cdef2b3	0.027215337
135	0xbe064917	-0.13113819
136	0x3edb5fba	0.4284647
137	0xbee2104c	-0.4415306
138	0xbe887755	-0.26653543
139	0xbf09e4ae	-0.5386456
140	0x3eab5c4b	0.3346885
141	0xbf3a16d2	-0.7269107
142	0x3d1d53df	0.038410064
143	0x3b412705	0.002947272
144	0xbd514f13	-0.0511008
145	0x3dc9c870	0.098526835
146	0x3e0d6d37	0.13811193
147	0xbe694373	-0.22779636
148	0xbe465e42	-0.19371894
149	0xbf1262f2	-0.5718223
150	0x3d8d6949	0.06904847
151	0x3ed2883b	0.4111956
152	0x3e16e890	0.14737153
153	0x3d70eb49	0.058818135
154	0x3dd4d895	0.10392872
155	0xbe0e704d	-0.13910027
156	0xbe5f71ff	-0.2182083
157	0xbe3d3a60	-0.184793
158	0xbefe61b8	-0.49683928
159	0xbe3284cc	-0.1743347
160	0x3e7d7ea8	0.24755347
161	0x3e7f70c4	0.2494536
162	0x3dfe0de4	0.12404993
163	0x3e8fdc4a	0.28097755
164	0x3de97090	0.11398423
165	0xbf35477b	-0.70812196
166	0x3e64b05d	0.22332902
167	0x3db51166	0.08841209
168	0x3e3f37d2	0.18673638
169	0x3b1042d7	0.0022012496
170	0xbe87fba4	-0.26559174
171	0xbda5d487	-0.08097177
172	0xbd0fea30	-0.035135448
173	0xbf02604f	-0.50928205
174	0xbd9c40d7	-0.07629555
175	0xbfe1653d	-1.760902
176	0xbe2050ff	-0.15655898
177	0x3e18e3e7	0.14930688
178	0xbc850250	-0.016236454
179	0x3e0e5cf6	0.1390265
180	0x3ea09803	0.31365976
181	0xbdb7ad7a	-0.08968635
182	0xbed0655f	-0.4070234
183	0xbd52e473	-0.051487397
184	0x3b61a3e1	0.0034429955
185	0x3e990863	0.2988921
186	0xbeac55dc	-0.33659256
187	0x3dff8af9	0.12477679
188	0x3d8a7c8e	0.06762038
189	0xbc9f4d4d	-0.01944604
190	0x3dfd0c19	0.12355823
191	0x3ec22541	0.37919047
192	0x3e0d7fca	0.13818279
193	0xbc36c65d	-0.011155692
194	0xbe6780bf	-0.22607706
195	0xbe449455	-0.19197209
196	0x3eddb47f	0.4330177
197	0x3e284809	0.16433729
198	0xbe10db54	-0.14146167
199	0x3dc8f1cc	0.09811744
200	0x3da91373	0.08255663
201	0x3eaf372b	0.34221777
202	0x3e0a350a	0.13496795
203	0xbe96a965	-0.29426113
204	0x3d89cd08	0.0672856
205	0xbec5626a	-0.38551646
206	0xbc830cc9	-0.015997307
207	0x3e5606c2	0.20901015
208	0x3dc21891	0.09477342
209	0x3e0a97f4	0.13534528
210	0x3db4b91a	0.08824368
211	0xbcb9d04a	-0.022682328
212	0xbccd0c2a	-0.025030214
213	0x3e2ddce6	0.16978797
214	0xbd25607b	-0.040375214
215	0x3e710a22	0.23539022
216	0xbe97ba1a	-0.29634172
217	0xbe953100	-0.29138947
218	0x3ecf4d96	0.4048888
219	0x3dc24ac9	0.094869204
220	0x3cff770f	0.031184701
221	0x3e03b609	0.1286241
222	0xbe8b873a	-0.27251607
223	0x3e704903	0.23465352
224	0xbbe15dbf	-0.0068776305
225	0xbd99920d	-0.0749856
226	0x3d352493	0.044224333
227	0x3e883657	0.26603958
228	0xbd7b6741	-0.061377767
229	0x3d099c44	0.033596292
230	0x3e115d43	0.14195733
231	0xbe05f3df	-0.1308131
232	0x3de9edda	0.1142232
233	0xbe10918b	-0.1411802
234	0xbdbcbb15	-0.092153706
235	0xbcd0a76c	-0.025470458
236	0x3da2cfc1	0.07949782
237	0x3ee69389	0.45034435
238	0x3d4e7127	0.05040088
239	0xbf02ec01	-0.51141363
240	0xbf081c61	-0.531683
241	0x3db17cb1	0.08666361
242	0x3ea4b0f0	0.32166243
243	0xbe3a057d	-0.18166156
244	0xbd7bc7d3	-0.061469864
245	0xbe967eec	-0.2939371
246	0xbf3a5482	-0.727852
247	0x3d9afee2	0.07568146
248	0x3e4d5ef0	0.20055747
249	0x3df6c726	0.12049703
250	0x3bca93f1	0.006182187
251	0x3f1fc300	0.6240692
252	0xbd5aac56	-0.05338701
253	0x3eb5c267	0.3549988
254	0x3e3bc6b4	0.18337518
255	0xba1c2170	-0.00059559103

layer2.bias f4 [128]
0	0xb9101609	-0.00013741119
1	0xbc615f28	-0.013755597
2	0x3e153928	0.14572585
3	0xbd245e5e	-0.040129058
4	0x3d158629	0.0365049
5	0xbdd4be0a	-0.103878096
6	0xbe3a362f	-0.18184732
7	0x3d099896	0.033592783
8	0x3e207b52	0.15672043
9	0xbd298662	-0.041387923
10	0xbcee1a9b	-0.02906542
11	0x3df217ac	0.11820921
12	0x3e3b36f9	0.18282689
13	0xbe1f901c	-0.15582317
14	0xbd848733	-0.064711
15	0xbde714a0	-0.11283231
16	0x3d81425b	0.063114844
17	0x3cfe3167	0.031029416
18	0x3d8e3395	0.06943432
19	0xbdc2c6f9	-0.09510607
20	0xbd0941aa	-0.033509888
21	0xbd756734	-0.059912875
22	0xbc484e1e	-0.012225656
23	0xbdc1996e	-0.094530925
24	0xbe9b2a36	-0.30305642
25	0xbd129e2b	-0.035795372
26	0x3d4d1032	0.050064273
27	0xbd959723	-0.07304218
28	0x3d17182f	0.036888298
29	0xba91cf1c	-0.0011124345
30	0xbd2bf34c	-0.041980073
31	0x3d487ee7	0.04894915
32	0xbbd713bc	-0.006563632
33	0xbdd206ae	-0.1025518
34	0xbe41528b	-0.18879144
35	0xbdf3a30c	-0.11896333
36	0x3ca5eb65	0.020253846
37	0x3e00f3ab	0.12592952
38	0xbe219be4	-0.15782124
39	0x3d62448e	0.05524116
40	0x3cbc4dab	0.022986254
41	0xbebf5189	-0.37366894
42	0x3bc5dd82	0.0060383687
43	0x3e7cda84	0.24692732
44	0xbe08d188	-0.1336118
45	0xbe285530	-0.16438746
46	0xbdea44d0	-0.11438906
47	0xbd8427a1	-0.06452871
48	0x39305fda	0.00016820375
49	0x3db52813	0.08845534
50	0x3e2a7e25	0.16649683
51	0x3e4868e5	0.19571264
52	0x3e05b389	0.13056768
53	0xba2cad69	-0.00065871194
54	0xbd28a992	-0.04117734
55	0xbd7c94f4	-0.06166549
56	0x3c1996dd	0.0093743475
57	0x3d489c06	0.04897692
58	0x3b868a77	0.0041058618
59	0xbe03f598	-0.12886655
60	0xbd798c9e	-0.06092512
61	0xbc08c21d	-0.008347061
62	0xbe0d8fc4	-0.13824373
63	0x3e139920	0.14413881
64	0xbe022fce	-0.12713549
65	0x3d929687	0.07157617
66	0x3e15c480	0.1462574
67	0xbd34bede	-0.044127338
68	0xbdc8888d	-0.0979167
69	0xbd72a493	-0.05923898
70	0xbd3e9ed3	-0.046538185
71	0x3db6c6f9	0.0892467
72	0xbdb65112	-0.08902182
73	0xbd154822	-0.036445744
74	0x3dd0deef	0.10198771
75	0x3d319323	0.04335321
76	0x3dc91c71	0.09819878
77	0x3d006aa5	0.031351704
78	0xbe22f981	-0.1591549
79	0xbe02edd7	-0.12786041
80	0x3e2e5966	0.1702629
81	0x3d17aa25	0.037027497
82	0xbe07cd70	-0.13261962
83	0xbccc8be9	-0.024969058
84	0xbe131dbd	-0.14366813
85	0xbe82b5ec	-0.2552942
86	0xbd51343a	-0.051075198
87	0xbc5213c6	-0.012822097
88	0xbdafa757	-0.085768394
89	0xbea85447	-0.328768
90	0xbd878d0d	-0.066187
91	0x3dea4644	0.11439183
92	0xbd517d27	-0.051144745
93	0xbde8e63d	-0.113720395
94	0xbd178105	-0.036988277
95	0x3d3bed41	0.04588056
96	0xbe077fc8	-0.13232338
97	0xbe403ec3	-0.18773942
98	0xbd10eac4	-0.03538014
99	0xbdf5972c	-0.11991724
100	0x3dd45966	0.10368614
101	0x3d05b187	0.032640006
102	0xbcdf9e9a	-0.027297307
103	0x3dac334b	0.08408221
104	0xbdafad76	-0.08578007
105	0x3e337658	0.17525613
106	0xbd0a1d8c	-0.033719584
107	0xbccaf8f4	-0.024776913
108	0xbdee0318	-0.11621684
109	0xbda1f729	-0.0790847
110	0xbca728ce	-0.0204052
111	0xbe928142	-0.2861424
112	0xbdcd0f84	-0.10012725
113	0xbdf0298e	-0.11726676
114	0x3da1733d	0.07883308
115	0xbda645d4	-0.081187874
116	0x3e038bee	0.12846348
117	0xbe3cf593	-0.18453054
118	0xbdf2f94b	-0.11863955
119	0xbe1fadba	-0.15593615
120	0x3a98f30a	0.0011669111
121	0xbc580cbd	-0.013186631
122	0x3e9022f6	0.28151673
123	0xbe05f4e8	-0.13081706
124	0x3e0c3115	0.13690598
125	0x3d78c74c	0.06073694
126	0x3d8731e5	0.066013135
127	0xbedc3d76	-0.4301564

layer3.weight f4 [10, 128]
0	0xbd862ace	-0.06551133
1	0xbdc54441	-0.09632159
2	0x3c59f4ca	0.013302991
3	0xbd828148	-0.06372315
4	0x3de8d929	0.11369545
5	0x3cc8d007	0.024513258
6	0x3e148811	0.1450503
7	0xbed96dd1	-0.42466596
8	0xbf7df951	-0.9920855
9	0xbd8968cd	-0.06709442
10	0xbd9b1855	-0.07573
11	0xbf55f954	-0.8358357
12	0xbe90645b	-0.28201565
13	0x3de460ca	0.111512735
14	0x3f69074b	0.91026753
15	0xbf521d89	-0.8207632
16	0x3dfc532c	0.12320551
17	0xbf4a83e8	-0.7910752
18	0x3e019f20	0.12658358
19	0xbd73ac5e	-0.059490554
20	0x3e1bcafd	0.15214153
21	0xbf1d1544	-0.61360574
22	0xbd344df3	-0.04401965
23	0x3e2664e3	0.16249423
24	0xbf24db12	-0.64396775
25	0xbfc29ee9	-1.5204746
26	0x3df363e4	0.11884287
27	0xbd6366cd	-0.05551796
28	0x3f975139	1.1821662
29	0x3def8831	0.11695898
30	0xbc76b32c	-0.015057366
31	0x3e990877	0.2988927
32	0xbe5c410f	-0.21509193
33	0xbd25b04b	-0.04045133
34	0xbe10c242	-0.14136603
35	0xbc819a5b	-0.015820673
36	0xbc8df235	-0.017327407
37	0x3da4b4b7	0.08042281
38	0xbc51cce6	-0.012805199
39	0x3d4f0465	0.0505413
40	0x3d80e379	0.06293387
41	0xbe37546b	-0.17903297
42	0x3f130c60	0.5744076
43	0xbf8ebd8e	-1.1151597
44	0x3dbac8c0	0.09120321
45	0xbdcbee87	-0.09957605
46	0xbd7034b5	-0.058644015
47	0x3dbeb3b2	0.09311618
48	0x3e33a52f	0.17543481
49	0xbdcfc6b6	-0.10145323
50	0x3d97262a	0.07380326
51	0x3d57c893	0.052681517
52	0x3d4076f2	0.046988435
53	0x3f91f224	1.140202
54	0xbf7414a6	-0.95344007
55	0xbf201ec2	-0.6254693
56	0x3e54e141	0.20789053
57	0x3ee6db0d	0.45088997
58	0xbd911924	-0.07084873
59	0xbdadf638	-0.08494228
60	0x3c5a49fd	0.013323304
61	0x3f9b8cc8	1.2152338
62	0xbece0c38	-0.40243697
63	0xbf985979	-1.1902305
64	0xbe18d92d	-0.14926596
65	0x3e7f155a	0.24910489
66	0x3dffaba8	0.12483913
67	0x3e81818e	0.25294155
68	0x3f0bc7fe	0.5460204
69	0xbd0b0410	-0.03393942
70	0x3e3ce6f2	0.18447474
71	0xbe5436f4	-0.20724088
72	0x3cafc6fb	0.021457186
73	0x39940ad7	0.00028236836
74	0x3dbd6371	0.092474826
75	0x3e09f38b	0.1347181
76	0x3eb27b22	0.34859568
77	0x3de03fc9	0.10949666
78	0xbdbcbdc0	-0.092158794
79	0xbe18574b	-0.1487705
80	0xbf7e952f	-0.99446386
81	0x3db2267e	0.08698748
82	0x3d53b179	0.051682923
83	0x3d9171ce	0.07101785
84	0x3e7a0c9c	0.24418873
85	0xbe875136	-0.26429147
86	0xbdeee9cc	-0.11665687
87	0x3db740ee	0.08947931
88	0x3d489d73	0.04897828
89	0xbd1c9555	-0.03822835
90	0x3b5acc92	0.0033386094
91	0xbf3a5ead	-0.72800714
92	0x3ec250bc	0.3795222
93	0xbc9b5257	-0.018960161
94	0xbd90dc3b	-0.07073256
95	0xbd628f62	-0.05531252
96	0xbf018b27	-0.50602955
97	0x3e1be429	0.15223755
98	0xbd04b481	-0.032398704
99	0xbcb7bc61	-0.022428693
100	0x3e04e94c	0.1297962
101	0x3e101021	0.14068653
102	0x3ccd2d2b	0.025045952
103	0x3e143539	0.14473428
104	0xbece8f9e	-0.40343946
105	0xbed6d6f8	-0.41960883
106	0xbd46076f	-0.048346933
107	0xbd4e58d1	-0.05037767
108	0xbc9a35f0	-0.018824548
109	0xbd95f665	-0.07322387
110	0xbf37701f	-0.7165546
111	0xbd9550b7	-0.07290786
112	0x3c4defb0	0.012569353
113	0x3d32ee98	0.043684572
114	0xbf81bddb	-1.0136064
115	0xbeba9f19	-0.36449507
116	0xbf5ef220	-0.87088203
117	0x3e3c9922	0.1841779
118	0x3df07836	0.117416784
119	0xbd12f35a	-0.03587661
120	0x3e0a2480	0.13490486
121	0xbc06af50	-0.008220509
122	0x3e3aa46a	0.18226781
123	0xbeb9bdd4	-0.3627764
124	0x3d91d0ff	0.07119941
125	0x3eaaf472	0.33389622
126	0x3da14934	0.078752905
127	0xbf579a10	-0.84219456
128	0xbbf83f45	-0.0075759017
129	0xbfdb8a33	-1.715155
130	0xc013fb93	-2.3122299
131	0xbdada2ff	-0.08478355
132	0xbf22d96f	-0.6361303
133	0x3d384e8e	0.04499679
134	0xbfcadc40	-1.5848465
135	0x3f6c6428	0.92340326
136	0x3f538f69	0.826407
137	0xbc69c39a	-0.014267826
138	0xbd5dbee1	-0.054137114
139	0xbb793993	-0.0038028702
140	0xc0a3eb59	-5.122479
141	0xbd2a9174	-0.04164262
142	0xbfaa9faa	-1.3329976
143	0x3f73971e	0.9515246
144	0xbf8afa1f	-1.0857581
145	0x3f37ced8	0.71799994
146	0xbfb4cbd2	-1.4124701
147	0xbda8c38c	-0.082404226
148	0x3efc899b	0.49323735
149	0x3f45cc43	0.77264804
150	0xbc4b4a62	-0.012407871
151	0xc02aa51f	-2.6663282
152	0xbf6a9b30	-0.9164305
153	0xbfe5b099	-1.7944518
154	0xbec2dab6	-0.38057488
155	0x3d3e47b0	0.046455085
156	0xbf7569c6	-0.9586452
157	0xbf612782	-0.8795091
158	0x3d3ff356	0.046862923
159	0xc0467c44	-3.1013346
160	0x3ecc301a	0.3988045
161	0x3d4bb73f	0.049735304
162	0x3ed593a1	0.41714194
163	0x3d88c03f	0.06677293
164	0xbda50c73	-0.08059015
165	0xbe04ca3b	-0.1296777
166	0xbe8c91be	-0.27454942
167	0xbe2b33c2	-0.16718963
168	0x3f02afff	0.510498
169	0x4008be7f	2.136627
170	0x3e80bb8c	0.25143087
171	0xbf384f1b	-0.71995705
172	0xbfd5fc31	-1.6717588
173	0xbd5ee330	-0.05441588
174	0x3d880892	0.0664226
175	0xbe100a29	-0.14066376
176	0xbfba3e76	-1.4550312
177	0x3e21f0b3	0.15814476
178	0x3e97a1cd	0.29615632
179	0x3e98ee4b	0.29869303
180	0x3ed6df0b	0.41967043
181	0xbfbc4e05	-1.471131
182	0xc00c8097	-2.1953485
183	0x3f89cf1f	1.0766333
184	0x3dc8cfef	0.09805285
185	0xc120fd5c	-10.061855
186	0x3cc23af1	0.023709746
187	0x3d177c4b	0.03698377
188	0xc0c18e66	-6.0486326
189	0xc01064a7	-2.2561433
190	0xbeee227d	-0.46510687
191	0x3ee020ba	0.43774968
192	0x3cb25e84	0.021773584
193	0x3eefd7b5	0.4684426
194	0x3e6a070a	0.22854248
195	0x3c1242fd	0.008927104
196	0xbf7a8a49	-0.97867256
197	0xbcb09ca8	-0.021559075
198	0xc015adf8	-2.3387432
199	0xbee502d5	-0.44728723
200	0x3d49356b	0.04912321
201	0x3db5005a	0.08837958
202	0xbd3a9697	-0.04555377
203	0x3d990c89	0.07473094
204	0x3e876338	0.26442885
205	0xbf20ae64	-0.627661
206	0x3da9e0d3	0.08294835
207	0xbee382b1	-0.44435647
208	0x3e32c28b	0.17457025
209	0x3ea883f9	0.32913187
210	0xbfd48d1c	-1.6605563
211	0xbfb1705e	-1.3862417
212	0x3d57aea6	0.052656792
213	0x3f00ee09	0.5036321
214	0xc028d986	-2.6382766
215	0xc007c9f0	-2.1217003
216	0xbd729542	-0.059224375
217	0x3eef915b	0.46790585
218	0xbd21080e	-0.039314322
219	0x3f3b1bb1	0.7308913
220	0xbd87e389	-0.06635196
221	0x3cdefd3c	0.027220361
222	0xbdc43c27	-0.09581786
223	0x3eb01664	0.34392083
224	0xbab744a5	-0.001398225
225	0xbf851477	-1.039687
226	0xbd6e6e38	-0.05821058
227	0xbd2862db	-0.0411099
228	0xbeb6d711	-0.35710958
229	0x3f2bdb62	0.67131627
230	0xbe53c5eb	-0.20680968
231	0x3e79397c	0.24338335
232	0xbd850301	-0.064947136
233	0xbfdcb601	-1.7243043
234	0xbcea2bd9	-0.028585361
235	0xbd53bf47	-0.05169609
236	0x3cae9c28	0.021314695
237	0xbcade737	-0.021228416
238	0xbefd63d0	-0.49490213
239	0x3f432e9a	0.76242983
240	0xbb2675d9	-0.0025399833
241	0xbdc2eea1	-0.09518171
242	0x3eeac427	0.45852777
243	0xbf6603a0	-0.8984928
244	0x3e368c5c	0.1782698
245	0xbfd6384f	-1.6735934
246	0xbfa64537	-1.2989873
247	0xbff2c618	-1.8966703
248	0xbf519690	-0.81870365
249	0xbcc246b4	-0.023715355
250	0xc01a0c52	-2.407002
251	0xbd5ada7d	-0.053431023
252	0xc085108f	-4.1582713
253	0x3e1cc064	0.15307766
254	0xc02197eb	-2.5248973
255	0xbf9e7434	-1.2379212

layer3.bias f4 [10]
0	0x3da49066	0.08035354
1	0xbf647a85	-0.8924945
2	0x3d2b6090	0.041840136
3	0xbdd5afee	-0.104339465
4	0xbe2df2d0	-0.16987157
5	0xbe30685d	-0.17227311
6	0xbe021f57	-0.12707268
7	0xbe221926	-0.15829906
8	0xbeaab78d	-0.33343163
9	0xbe8fc88a	-0.28082687
